experiments/best_model.pt (torch, 37412 bytes, 7 tensors)

conv1.bias f4 [64]
000000 00 00 00 00 00 00 00 00 b1 94 08 bb 00 00 00 00
       0.0 0.0 -0.002084058 0.0
000010 00 00 00 00 fd d7 dc bb ae e6 6b bb 16 a7 09 bc
       0.0 -0.006739615 -0.003599565 -0.008401653
000020 05 0e 7b bb 14 bb a6 3b 06 24 e0 be 00 00 00 00
       -0.0038307917 0.0050882194 -0.43777484 0.0
000030 00 00 00 00 00 00 00 00 00 00 00 00 00 00 00 00
       0.0 0.0 0.0 0.0
000040 00 00 00 00 00 00 00 00 ee 1b a9 be 50 f6 38 3e
       0.0 0.0 -0.3302912 0.18062711
000050 00 00 00 00 f0 28 68 bb 35 17 02 bc 00 00 00 00
       0.0 -0.0035424791 -0.007940103 0.0
000060 00 00 00 00 61 a6 6c 3e e1 6f 2d bb 93 55 58 be
       0.0 0.23110344 -0.002646439 -0.21126394
000070 69 78 dd bb bd 6d 18 bb 00 00 00 00 00 00 00 00
       -0.006758739 -0.0023258768 0.0 0.0
000080 00 00 00 00 34 c1 53 bb 8e cb f7 bb 00 00 00 00
       0.0 -0.0032311203 -0.0075621074 0.0
000090 00 00 00 00 22 f3 8d bb 00 00 00 00 00 00 00 00
       0.0 -0.004331962 0.0 0.0
0000a0 00 00 00 00 00 00 00 00 df dc c0 bb 80 d3 25 bc
       0.0 0.0 -0.005885705 -0.010121226
0000b0 00 00 00 00 5e 17 ff bb 00 00 00 00 7e 70 d8 bb
       0.0 -0.007784768 0.0 -0.006605207
0000c0 4c 31 ab bb dd 0f 2f bc 00 00 00 00 00 00 00 00
       -0.0052243825 -0.010684934 0.0 0.0
0000d0 00 00 00 00 00 00 00 00 00 00 00 00 fa aa 8e ba
       0.0 0.0 0.0 -0.0010884695
0000e0 00 00 00 00 00 00 00 00 00 00 00 00 e2 bc 60 bb
       0.0 0.0 0.0 -0.003429227
0000f0 e7 d7 e1 ba d2 ef 02 3e f7 82 8d bb 00 00 00 00
       -0.0017230482 0.12786797 -0.0043185907 0.0

conv1.lin.weight f4 [64, 1]
000000 2d ce 74 be 7d c0 f2 bd 9d c1 c1 3d 39 34 b1 bd
       -0.23906775 -0.118531205 0.09460757 -0.08652539
000010 39 33 3e be 9b 2a 55 3e cc 62 b6 3d 02 60 2b 3e
       -0.18574227 0.20817034 0.08905563 0.16735843
000020 38 b1 31 3e c1 ad 03 3e 90 85 ed 3d ae 91 91 be
       0.1735276 0.1285925 0.11597741 -0.28431457
000030 80 ba 6b be 94 bd 54 be 95 c8 8c be ab 95 22 be
       -0.23020363 -0.20775443 -0.27496782 -0.15877406
000040 ce 3e 86 bc 8d e1 03 bd 17 7d 4a 3e fa 35 0d bf
       -0.01638737 -0.032197524 0.1977428 -0.55160487
000050 fa db 84 be 11 2d f2 3d eb 13 24 3e 69 d6 1c be
       -0.2594908 0.11825002 0.16023223 -0.15316166
000060 79 86 6a be 2a d1 07 bd 53 f6 34 3e a4 fa 12 3e
       -0.2290286 -0.03315846 0.1767209 0.14353424
000070 fa 4a 07 3e 8f b1 29 3e 45 21 b3 bd de 06 f1 bc
       0.13212195 0.1657164 -0.0874658 -0.02942222
000080 32 f2 0f be 2a 74 11 3e 95 f0 19 3e 77 70 09 bd
       -0.14057234 0.1420447 0.15033181 -0.03355452
000090 d6 09 96 bc 08 af 35 3e 13 8a 7a bd fb f0 0e be
       -0.018315237 0.1774255 -0.061166834 -0.13959114
0000a0 e3 52 84 be 53 a5 00 be e1 28 65 3e 0e 44 09 3d
       -0.25844488 -0.12563066 0.22378875 0.033512168
0000b0 7e de 78 be 46 0b c9 3d 45 e4 9a be 3c b3 b1 3d
       -0.24303624 0.09816603 -0.3025228 0.08676764
0000c0 7c 10 01 3e ab b5 64 3e 31 e2 81 be d1 2b 9a be
       0.12603945 0.22334926 -0.25367883 -0.30111554
0000d0 1d 58 9e bd 6e 51 89 be a7 e8 85 bd 73 e9 18 3e
       -0.0773165 -0.26819938 -0.065385155 0.14932804
0000e0 40 ac 92 be 63 a6 2f bc fe b9 24 be 59 06 00 3e
       -0.2864704 -0.010720822 -0.16086575 0.12502421
0000f0 90 12 30 3e 85 c8 af bc fc 6c 3a 3e dc bd 7f be
       0.17194581 -0.02145792 0.18205637 -0.2497477

conv2.bias f4 [64]
000000 4d da 14 bb f4 ad 13 bd 8f d4 43 bc 0b de 66 bd
       -0.0022713125 -0.036054567 -0.011952533 -0.0563641
000010 12 61 42 bd b7 2b 77 bd e8 a6 f1 bb 46 61 40 3e
       -0.047455855 -0.060344424 -0.007374633 0.18787107
000020 9e 0e 5b bd 6f 43 d8 bc c9 56 04 3e de 50 c1 bc
       -0.053480737 -0.026399342 0.12923731 -0.02359813
000030 6c fb 08 be 21 f4 12 bd 7c 6d f7 3d a1 b0 33 bc
       -0.1337716 -0.03587735 0.12081429 -0.010967405
000040 fe ae 0e be 41 e3 80 bc 13 e8 9f bc 10 6f 32 3e
       -0.13933942 -0.015733363 -0.019519841 0.1742518
000050 21 42 92 3d 41 79 81 bc 6b 25 39 3e 05 ad e1 bc
       0.07141519 -0.015804889 0.1808068 -0.027548322
000060 28 6b 26 3e e4 80 21 3e ab 49 06 bc b0 cc 13 3e
       0.16251814 0.15771824 -0.008196275 0.14433551
000070 91 b2 3b bd 37 5e ba 3c 6c e4 cf bc f8 00 18 3e
       -0.04582459 0.022750003 -0.025377475 0.1484412
000080 19 68 0b bd e4 2d e7 bc 24 9b 20 3e fd b1 a8 bc
       -0.034034822 -0.028220125 0.15684181 -0.020592684
000090 ec 2b 81 bd 75 2b 34 3e 8f e7 f5 bc 91 12 8f bd
       -0.063072056 0.17594703 -0.030017642 -0.06985963
0000a0 95 5c 17 bc 85 66 0e bd d0 43 24 bd 9f 51 42 bd
       -0.009238382 -0.03476574 -0.040103734 -0.04744112
0000b0 22 f4 e1 bc f1 c4 10 3d 77 5b 11 bc b1 09 ac be
       -0.027582232 0.035344068 -0.008871905 -0.33601144
0000c0 21 29 ed bb f3 74 73 3c b1 8c 7c bc 2a e6 48 bc
       -0.007237569 0.014859426 -0.015414403 -0.012261907
0000d0 7d d3 fa bc ca e8 e8 bc 94 e5 13 3e 16 a6 97 bd
       -0.030618424 -0.028431315 0.14443046 -0.07404725
0000e0 82 f1 13 bf f2 34 13 bd 99 a6 30 3e bc 9c ac bb
       -0.57790387 -0.035939164 0.17251052 -0.0052677076
0000f0 99 5f 0e bf c0 c8 0a bd 97 e6 42 bf 74 f5 32 bd
       -0.5561462 -0.033882856 -0.761331 -0.043691114

conv2.lin.weight f4 [64, 64]
000000 35 e1 00 3e db d3 05 be a3 5c 27 bd f4 f8 89 bc
       0.1258591 -0.13069098 -0.04085983 -0.016842343
000010 45 00 ab bd d4 3d 4d 3e d3 8c 36 3e 68 15 1e bc
       -0.08349661 0.20043117 0.17827158 -0.009648658
000020 d6 ec e4 bd 10 27 c7 bc e2 4d 9b be 87 52 b5 bc
       -0.11177985 -0.024310619 -0.30332857 -0.022134079
000030 17 1b 6e 3d c0 23 5c be a7 64 be 3d ae 75 41 3e
       0.058131304 -0.21498013 0.09296542 0.18892547
000040 03 ad 86 3c be b7 d4 3d 21 6e 5c 3e de e3 14 bf
       0.01643992 0.103866085 0.21526386 -0.581602
000050 c4 dd a5 bc 08 36 47 3d c2 80 82 bd 2f f6 3b bd
       -0.020247348 0.048635513 -0.06372215 -0.045889076
000060 e8 04 49 be a6 2d 7f bd bb d0 a8 bd 7e ad 16 3e
       -0.19630778 -0.062299393 -0.08242937 0.1471462
000070 01 c1 79 bd df 21 97 3d a3 38 3d be 40 0a 16 3e
       -0.06097508 0.07379507 -0.18478636 0.14652348
000080 4b ee d2 3d da 85 2d 3e 4d a8 3a 3e 60 03 fc bd
       0.10299357 0.16945592 0.18228264 -0.12305331
000090 a2 dd 23 be fc 63 b5 3d 35 d0 ba bd 38 39 95 bd
       -0.16002515 0.08856961 -0.091217436 -0.07286304
0000a0 7f 22 0e 3e 48 70 45 3e 89 89 d6 3d d5 4e 8b bd
       0.13880347 0.19281113 0.104754515 -0.068021454
0000b0 3b 95 14 be 0a 2d d1 bd 60 76 64 bd da 19 c6 3c
       -0.14510052 -0.10213669 -0.055776954 0.024182249
0000c0 27 28 a9 3d d5 f5 f6 3d 05 75 0a be 8a 25 43 3e
       0.082596116 0.120586075 -0.13521202 0.19057289
0000d0 3c 2f 45 be 7d f1 47 be 90 54 17 bc 71 55 2e 3e
       -0.192563 -0.19525714 -0.00923647 0.17024781
0000e0 e3 08 01 3e ce d6 d8 bd a2 79 58 3e a1 c1 8e 3d
       0.12601046 -0.10587846 0.21140149 0.069705255
0000f0 e1 88 de bd 28 2c 87 be 2f a9 65 3e 7d 3c df 3d
       -0.10865951 -0.26400876 0.2242782 0.10900209
000100 7f c5 8c bd 49 6d 02 be 2c e2 1a be 2d 33 1a 3e
       -0.06873607 -0.12737001 -0.1512534 0.15058585
000110 8c 07 29 3e 1d db 2e 3e d3 73 2d 3e e3 e7 36 3e
       0.16506785 0.17075773 0.16938715 0.17861895
000120 74 94 40 3b f0 d9 11 3d 88 eb a3 bd 2b 67 06 3e
       0.002938536 0.035608232 -0.080039084 0.13125293
000130 11 84 e6 3d ad e5 14 3e 26 bd f4 bc f4 6a 47 3d
       0.112556584 0.1454074 -0.02987535 0.048685983
000140 15 a8 fc bd b5 ca 50 3e 14 a7 1e be 29 1f 1b be
       -0.123367466 0.20389827 -0.15493423 -0.15148605
000150 79 4b 34 be bc da 2c 3e af a5 2e be 9a f1 a2 bd
       -0.17606916 0.16880316 -0.17055391 -0.07956238
000160 7a 65 85 bd 07 6d 45 be 90 c6 cd 3d 99 9d 8a bd
       -0.06513496 -0.19279872 0.100476384 -0.067683406
000170 a4 02 0a be a1 1e c7 bd 37 48 2a be 14 51 3a be
       -0.1347757 -0.09722639 -0.1662911 -0.18194991
000180 51 5a 2f bc d1 54 30 be 3b 90 bf bd e7 f4 4f be
       -0.010702685 -0.17219855 -0.09353682 -0.20308267
000190 6c 2e 98 bc b1 23 6b be f3 a5 81 bd bc f9 ce bd
       -0.018576823 -0.22962834 -0.063304804 -0.10106227
0001a0 49 e0 5c be b4 63 b6 3d f3 19 56 3e f3 93 bb 3d
       -0.21569933 0.089057356 0.20908336 0.091590784
0001b0 80 5a f1 bd 0a fd f1 3d a3 c9 e2 bc 9a 4a e9 bc
       -0.1178484 0.118158415 -0.027684039 -0.028477956
0001c0 f6 c4 32 be 7f 9b 55 be 05 7b 9c 3d 8c ba 33 be
       -0.17457947 -0.20860098 0.076406516 -0.1755163
0001d0 8f 82 95 bd 54 04 27 be 97 6b e1 bd ec c8 a7 3b
       -0.07300293 -0.16310245 -0.11006849 0.0051203873
0001e0 45 c4 15 3d 68 26 85 3d 0d 66 83 3c c2 a8 0e 3e
       0.03656413 0.06501466 0.016039873 0.13931563
0001f0 65 c7 97 bc 68 f5 05 be 32 4e 19 be dc 6f 5b 3e
       -0.018527696 -0.13081896 -0.14971235 0.2142939
000200 7e 92 b8 3d 55 bf 33 be 2a 82 78 3e 37 9e 48 3e
       0.09012316 -0.17553456 0.24268404 0.19591604
000210 78 7f 8c 3d c7 ed c6 bd 05 11 2d 3e ab 27 06 bc
       0.0686025 -0.09713321 0.16901024 -0.0081881685
000220 b0 8e f0 bc 95 d2 5d 3e c8 ec 1a be 05 df 27 3d
       -0.029364914 0.21662362 -0.15129387 0.040984172
000230 bf f3 1e 3e 7a fa b1 3d 02 af 18 3e 8f 03 bd bd
       0.1552267 0.08690353 0.1491051 -0.092291944
000240 da a3 51 3e c0 cb 28 3e a9 8a 4d 3e 43 f6 1e bf
       0.2047266 0.16483974 0.20072426 -0.62094516
000250 6c 1f ab 3d 89 85 a9 bd f3 86 0e 3e d8 f5 04 be
       0.083556026 -0.08277423 0.13918667 -0.12984407
000260 83 e7 76 3c 7a 82 00 bd f3 7f 72 3e 17 71 eb 3b
       0.015069845 -0.031374432 0.23681621 0.007185112
000270 74 7c 78 3e 55 66 30 be f2 76 0f 3d 14 de 2a be
       0.24266225 -0.17226537 0.035025544 -0.16686279
000280 d2 7a 26 3e be 70 01 3e 63 0c 0d 3e d6 4f 64 bd
       0.1625779 0.12640664 0.13774256 -0.0557402
000290 15 3e 64 3c 32 d7 48 3e db 1e 24 3e d5 ba 87 bd
       0.013930817 0.1961334 0.16027395 -0.06627432
0002a0 00 fa 8a 3d ca 72 e4 3d bc 66 b3 3d bf d1 83 bd
       0.06785965 0.11154707 0.087598294 -0.0643649
0002b0 6c fa cb bd ab 03 ff bd ec 62 c6 3c 90 48 25 3e
       -0.099598736 -0.124518715 0.024217092 0.16140962
0002c0 8a 03 91 3d d6 bc 2f 3e 79 66 13 3e f8 22 b1 bd
       0.07080753 0.17161879 0.14394559 -0.08649248
0002d0 a6 9f 8c bc 5c b0 33 3e 71 66 e3 3d ed cd 40 3e
       -0.01716597 0.17547745 0.111035235 0.18828554
0002e0 1f 1a 2d 3e 57 1b 88 bd b3 22 0e 3e 16 6e 19 bc
       0.16904496 -0.0664584 0.13880424 -0.009364625
0002f0 5e d1 74 bc 43 8e 54 bd 39 a9 17 be 46 00 3c 3e
       -0.014942495 -0.051893484 -0.14810647 0.1835948
000300 0b 09 6a 3d 10 60 57 3e 1c 2d db bd 0f ee f3 3b
       0.05713753 0.21032739 -0.10701963 0.0074441503
000310 ab c9 31 bd f7 bf dd 3d 58 92 0d be cf 25 3a 3e
       -0.043405216 0.1082763 -0.13825357 0.18178485
000320 a9 22 90 bd 8b ef c3 bc 14 27 82 3d 5f ea 0f be
       -0.07037861 -0.023917934 0.0635511 -0.14054249
000330 b6 34 b1 3d 33 88 c8 3c c2 c7 a9 3d 85 da 3e be
       0.08652632 0.024479007 0.08290054 -0.18638046
000340 7d d3 5b 3e e0 b4 c7 bd 41 17 24 3e 80 eb d1 be
       0.21467395 -0.09751296 0.16024496 -0.40999985
000350 43 a7 c7 3d ba ad 4d 3e ee 5a c0 bb 20 6f 9c bd
       0.097486995 0.20085803 -0.0058702147 -0.07638383
000360 03 23 cb 3d 4a c8 b5 bc 5f af f2 bd 50 46 83 3e
       0.09918787 -0.022190232 -0.11849856 0.25639582
000370 82 10 ab 3d 24 15 0f 3e eb ca 09 3d 3f 6b 98 bd
       0.08352758 0.13972908 0.033640783 -0.074423306
000380 e6 68 b0 3d 7a 28 09 3e 06 39 2e 3e 6a b3 b5 3d
       0.08613758 0.13394347 0.1701394 0.08872111
000390 dd b6 d9 bd df 87 52 3d 93 3d ac 3d bb 19 27 3e
       -0.106305815 0.051399108 0.08410182 0.16318409
0003a0 34 66 50 be 87 1a 6a bd f3 3c fb bd 62 d3 21 be
       -0.20351487 -0.057154205 -0.122674845 -0.15803292
0003b0 47 da 8e 3d 93 64 ce 3d 9c b9 0e bd 5c 8a fb bd
       0.06975227 0.10077777 -0.03484498 -0.12282249
0003c0 2e 9f dc 3d 3f 85 14 3d 81 f0 83 3d 7f 26 4f 3e
       0.107725486 0.036259886 0.06442357 0.20229529
0003d0 df a3 2a be 74 47 6a 3d ba 41 32 be e6 4f 67 ba
       -0.16664074 0.05719705 -0.17407885 -0.00088238565
0003e0 ee 7c 1b 3e 51 54 5b be 70 ad 56 3e fb 7f a8 3c
       0.15184376 -0.21418883 0.20964599 0.020568838
0003f0 53 02 48 3e a5 51 87 3d c4 4b 53 3e ea 22 94 3d
       0.19532137 0.06607369 0.20634371 0.07233222

conv3.bias f4 [64]
000000 e7 1d 28 bd c1 54 3e 3d c6 ba 46 3d 75 a4 83 3d
       -0.041044142 0.046467546 0.048517965 0.06427852
000010 93 f9 5b 3c c3 54 25 3d 52 dd 13 bd 4e ba 61 3d
       0.013426202 0.04036404 -0.03609974 0.055109315
000020 48 4e 12 3d 0b 38 63 bd 8d f9 58 3d e3 09 38 bd
       0.035719186 -0.05547337 0.052972365 -0.044931304
000030 6c 68 93 bd 2f 07 32 3d f8 35 74 bd 59 cf 33 3d
       -0.07197651 0.043463882 -0.05962178 0.043898914
000040 03 89 4e bc e8 67 23 bd 73 d7 ff bb 09 b0 4e 3d
       -0.012605908 -0.039894015 -0.007807666 0.05046085
000050 dc 60 3e 3d 88 4e 32 3d 2c 30 91 3d 52 0e 96 3c
       0.04647909 0.043531924 0.07089266 0.018317375
000060 eb 65 3c 3d e5 1e 44 bd be b4 35 3d 04 0a 19 3d
       0.045995634 -0.047881026 0.044361822 0.037363067
000070 c6 33 34 3d 3d ba 47 3d 16 96 49 3d 7c 84 14 bd
       0.043994687 0.048761595 0.0492154 -0.03625916
000080 2c 24 e3 3c 63 58 d8 bc 41 0b 44 bd 91 03 2e bd
       0.027727209 -0.026409334 -0.047862295 -0.04248387
000090 73 c4 1f bd 93 0e 10 3d bd a3 41 bd 8b fb e8 bc
       -0.039005708 0.03517015 -0.047275294 -0.028440258
0000a0 67 70 3b 3d c5 9a 05 bd 5b 99 44 3b 36 2c 8d 3d
       0.045761492 -0.032618303 0.0029998634 0.06893198
0000b0 80 55 19 bd 78 79 95 bd 02 96 46 3d c7 5f 61 bd
       -0.037435055 -0.07298559 0.048482902 -0.05502298
0000c0 59 38 2b 3d e7 c7 38 3d 2d 1a 3e 3d 10 34 5b 3d
       0.041801784 0.045112517 0.046411682 0.053516448
0000d0 10 d3 94 bd 5e 47 2d bd 93 cc 95 bc a9 f7 40 3d
       -0.072668195 -0.04230439 -0.018286025 0.047111187
0000e0 40 0b 78 bc 58 44 89 3d 4c 67 14 bc 00 7b 5a 3d
       -0.015139401 0.06702489 -0.009057831 0.05333996
0000f0 b3 c7 84 3d 01 a7 51 3d 48 6c f5 bc 00 47 b2 3c
       0.06483402 0.051184658 -0.02995886 0.021762371

conv3.lin.weight f4 [64, 64]
000000 ab 32 49 bd c1 06 c2 bd 42 15 ab bc 3a f5 a5 bd
       -0.049120586 -0.094739445 -0.02088416 -0.08103414
000010 92 d5 55 3e 4a 6b e1 3d 28 e1 05 3e 4b 73 4e be
       0.20882252 0.11006792 0.13074172 -0.20161168
000020 a5 0d 62 3d a7 5c a5 3c 2b 08 57 be 82 aa 7d 3e
       0.055188794 0.020185782 -0.2099921 0.24772075
000030 50 91 de bc 00 12 6e 3e 26 9c 9e bd e4 72 ff 3d
       -0.0271689 0.23249054 -0.07744627 0.124730855
000040 57 9a a3 3d 46 ed be bd 6f 21 3b 3e 91 19 72 be
       0.07988422 -0.093226 0.18274473 -0.23642565
000050 70 54 11 bd c4 b8 0c be 0a 8f 89 bd 81 80 b3 bd
       -0.035480917 -0.13742357 -0.06716736 -0.087647445
000060 1a dc 90 be 0d f8 42 bd 23 43 c8 bc 84 7d 72 be
       -0.28292924 -0.04759984 -0.024446076 -0.23680693
000070 23 f1 b4 bc 11 ca d5 3d 55 c2 d9 3c 8a 17 df 3c
       -0.02208764 0.10438932 0.026581923 0.027232904
000080 0e 8d 3b bd 53 d7 4d bd 35 01 21 be e1 55 e1 3d
       -0.045788817 -0.050254177 -0.15723117 0.11002708
000090 e4 93 2c be 28 e4 22 be 3d c5 97 bb 52 94 49 3e
       -0.16853291 -0.15907347 -0.004631667 0.19685486
0000a0 6c 5d 1b 3e d0 d8 05 3e 4b 22 01 be f6 75 88 bb
       0.15172356 0.13070989 -0.12610738 -0.0041644527
0000b0 48 bb 22 be 27 da 5d 3e 0d ee 0c 3e dc 14 76 be
       -0.15891755 0.2166525 0.13762684 -0.24031395
0000c0 82 00 ae 3d 14 3f 03 be 16 9a 65 3e dd cb 00 3e
       0.084961906 -0.12817031 0.2242206 0.12577768
0000d0 de 21 b8 bd 08 16 70 bd e0 8c e3 3c 7c a3 b3 3c
       -0.08990835 -0.05861476 0.027777135 0.021928541
0000e0 03 32 ee be b5 47 66 3e fa 3c 24 be b0 0a 84 bd
       -0.4652253 0.22488292 -0.16038886 -0.06447351
0000f0 aa ae f5 be bf 44 0c be 5d 67 0c bf 52 79 c4 3c
       -0.4798482 -0.136981 -0.5484522 0.023983631
000100 90 66 e1 3c 26 40 73 3c 3c 2b 99 bc 79 18 7d be
       0.027514726 0.014846837 -0.018697374 -0.24716367
000110 9c c0 44 be ef 2e 46 be 6c ea aa 3d e9 bf 9d 3e
       -0.192141 -0.19353841 0.08345494 0.30810478
000120 88 9e 02 bd bb 5a 4d bc ae 8e 12 bc 0e e6 78 3b
       -0.03188947 -0.012533839 -0.00894515 0.003797892
000130 7e b6 11 3e 8c 7d bc 3d 0b 7f 31 3e 27 7a 29 bd
       0.14229771 0.09203634 0.1733362 -0.04137626
000140 3c cc 6c 3e 9d 12 82 3d 42 c6 1b 3d 8e a9 3d 3e
       0.23124784 0.063512065 0.03803087 0.18521711
000150 57 f0 0d 3e a5 44 f9 bd 29 6d 41 3e 5c 4b 46 be
       0.13861214 -0.12171296 0.18889298 -0.19364685
000160 a0 42 86 bd 1e 72 53 3e 8c 5c 90 bc 84 75 51 3e
       -0.065556765 0.20649001 -0.017622255 0.20454985
000170 ef 50 a7 3d c3 73 82 be 7b c2 c6 3d eb 81 96 3e
       0.08169734 -0.25478944 0.09705063 0.29395995
000180 ef 19 36 be 6a 25 d2 bd 94 b7 e8 bd 31 14 37 bc
       -0.1778333 -0.102610424 -0.1136314 -0.011174248
000190 20 a6 27 3d 67 e8 48 3e b4 ae 7e be 78 63 02 3d
       0.040929914 0.19619904 -0.24871331 0.031833142
0001a0 03 32 43 be 55 54 7a be 67 dc 4f 3d 42 b7 11 be
       -0.19062047 -0.24446233 0.0507473 -0.14230064
0001b0 83 e5 be bd 84 bd dc 3c df 68 be bd 24 f0 69 3e
       -0.0932112 0.026945837 -0.09297346 0.22845513
0001c0 b6 1e de bd 63 4a bc 3c 7d 60 ff bd 33 46 c8 3c
       -0.108457014 0.02298469 -0.124695756 0.024447536
0001d0 2a 31 5b 3d 63 8d 5f 3d 8d e0 b3 3b 59 12 63 3c
       0.053513683 0.054578196 0.005489415 0.013859355
0001e0 5d 41 ae 3e 13 40 cf 3c 8c 23 7e 3e 52 f4 5a be
       0.34034243 0.025299108 0.24818248 -0.21382263
0001f0 00 47 1a 3f 0f 28 3d be 0d e8 54 3f 20 3c a0 bd
       0.6026459 -0.18472312 0.8316658 -0.07823968
000200 9e a2 6a be a7 eb 4c 3e aa ad 0d 3e 28 6f 56 bd
       -0.22913596 0.20011769 0.13835779 -0.0523521
000210 e8 59 f5 bd f4 2b 14 bc bb 7b 0b be da a4 8b 3e
       -0.11980039 -0.009043682 -0.13621418 0.2727421
000220 b0 76 30 be 1f ff 03 3e b9 af 0f 3d 6a c3 e6 3d
       -0.17232776 0.1289029 0.03507969 0.11267741
000230 2d f4 72 bd 29 fe 45 be 5c 00 14 3b 2e b3 97 bd
       -0.059314895 -0.19335236 0.0022583222 -0.07407223
000240 a0 97 06 be 80 8a 13 be bd 8e 28 be 3d 1a 17 bd
       -0.13143778 -0.14408302 -0.164607 -0.036890257
000250 b3 45 14 bd cd 27 db bd 38 56 03 3c 54 fe 20 bd
       -0.036199283 -0.10700951 0.008016162 -0.039305046
000260 d4 b0 40 3e ac 13 46 3e c8 09 84 be 94 ad 25 bc
       0.18817455 0.19343442 -0.25788713 -0.010112185
000270 28 95 a0 bd a6 4b 23 3e d2 50 72 bd fd 08 97 3e
       -0.07840949 0.15946826 -0.059159108 0.29499045
000280 f5 9c b2 bc 7f 6e 72 ba 7a b4 fb bd 3b 35 8c bd
       -0.021803359 -0.00092480326 -0.122902825 -0.068460904
000290 c3 14 12 bd 37 75 8c 3e 1c a2 09 be f6 54 23 be
       -0.03566433 0.27433178 -0.13440746 -0.15950379
0002a0 87 e6 8f bd 75 98 eb bb 99 40 22 be a8 63 f2 bd
       -0.070263915 -0.007189805 -0.15844955 -0.11835414
0002b0 3d b6 99 bd 03 fb 8d be 57 0e a3 bc 3c e9 62 3d
       -0.07505462 -0.2773057 -0.019904299 0.05539821
0002c0 1d 9f ac bc 65 ca 3d be 19 9f 3a 3d cb 6a 51 bd
       -0.021071965 -0.18534239 0.045561884 -0.051127236
0002d0 40 53 dd 3c 58 99 5e be b3 b2 a1 3e cf ff a9 bd
       0.027017236 -0.21738183 0.3158165 -0.08300745
0002e0 e5 35 d3 3e dd 1f a1 3d 4d 6f 74 bb 8f 53 d3 3d
       0.41252056 0.078674056 -0.0037297786 0.10318672
0002f0 ac c6 ab 3e 6d 40 c1 bd a5 a0 4d 3f 3b 71 38 3e
       0.33550012 -0.09436116 0.8032325 0.18011944
000300 0e c3 1e bd f6 a9 b7 3d 8b 12 b4 bd c3 92 ac bd
       -0.038760237 0.08967964 -0.08792599 -0.0842643
000310 45 d5 2c be 01 85 92 bc 6a 09 f2 3d f3 e8 50 3e
       -0.16878231 -0.017885687 0.11818202 0.20401363
000320 78 38 06 be 00 1e 4e be fb f3 92 3e 03 ef 80 be
       -0.13107479 -0.20128632 0.28701767 -0.2518235
000330 39 5b 18 be 4b e0 3d be 3e 1f 2c 3e f7 25 4c be
       -0.14878549 -0.18542592 0.16808793 -0.19936357
000340 1e 33 08 be 28 8c 80 be 1e ba bb bd 0a 7e ae 3e
       -0.1330075 -0.2510693 -0.091663584 0.34080535
000350 eb 44 b8 3d 8e f9 0b 3e 00 4d a7 3e d2 51 be ba
       0.0899752 0.13669416 0.32675934 -0.0014520234
000360 e6 91 04 3e 35 26 95 3e 86 d0 08 3e 3b 97 24 3e
       0.12946281 0.29130712 0.13360795 0.16073315
000370 e3 ec d2 3d 06 e0 8b be 69 3d 4e bd ea 3d dc 3d
       0.10299089 -0.27319354 -0.050351534 0.10753997
000380 f6 ac 05 be da d1 c6 bb 2d 1d 6b 3e 2b 5e 25 be
       -0.1305426 -0.0060674967 0.22960348 -0.16149203
000390 f7 f4 d2 3d 61 e4 95 bd f7 17 80 3c 37 9a 13 be
       0.103006296 -0.073189504 0.015636427 -0.14414297
0003a0 7c 65 b5 3b a4 6b 5e be a0 b1 26 be 96 02 07 3e
       0.0055357795 -0.21720749 -0.16278696 0.1318458
0003b0 14 74 fa bc 9b 0d 0f bd f4 53 61 be 9c 4a 85 3e
       -0.030572928 -0.034925085 -0.22004682 0.26033485
0003c0 08 69 ae bd 3f 42 03 3e ca 24 aa bd ff 3a a4 bc
       -0.08516127 0.1281824 -0.08307798 -0.020047663
0003d0 0b 15 13 be 31 b2 1f 3e 77 ec 16 3e 1d 55 b8 3d
       -0.14363496 0.15595318 0.14738642 0.09000609
0003e0 67 63 db 3e e1 fc f7 3d d3 00 f9 3d 18 2d eb 3b
       0.42849275 0.1210878 0.1215836 0.0071770065
0003f0 32 eb 25 3f 6f 5f 4b be ba 33 48 3f 66 c9 7b 3d
       0.64812005 -0.19860624 0.7820393 0.061471365

lin.weight f4 [1, 64]
000000 1a 8c d4 bd 09 44 11 3e 86 35 c6 3d 35 0d ce 3d
       -0.10378285 0.1418611 0.096781775 0.10061113
000010 01 4a 4b bd 61 fd 33 3e 04 52 29 be 50 5d c1 3d
       -0.049631122 0.17577125 -0.16535193 0.09441626
000020 78 5e 3b 3e 4e 4f cd bd ae c5 ab 3d 2f be a1 bd
       0.18297756 -0.10024892 0.08387314 -0.07897603
000030 ad 61 98 bd b8 92 0f 3e 2a cd 90 bd 31 aa dd 3d
       -0.07440505 0.14020813 -0.07070382 0.10823477
000040 e6 49 b7 bd 92 86 ba bd 61 b6 3f 3d 25 21 e5 3d
       -0.08949642 -0.091076985 0.04680479 0.111879624
000050 7f 85 0f 3e 36 82 22 3e 7a f9 ca 3d ae 6c 92 3d
       0.14015768 0.15869984 0.09910865 0.07149635
000060 80 db 1d 3d fe cb 8b bd 2a 3f 14 3e a6 e5 91 3d
       0.03853941 -0.06826018 0.1447722 0.0712388
000070 f7 69 0c 3e 7e 9f d6 3d 90 d9 dd 3d 82 2f 5e be
       0.13712297 0.104796395 0.108325124 -0.2169781
000080 9a 6b 8c 3d 23 61 c3 bd 87 af 9c bd cf 83 a7 bd
       0.06856461 -0.09540012 -0.07650667 -0.08179437
000090 06 00 50 be f1 a5 ad 3d fb 1e d9 bd 92 5a 86 bd
       -0.20312509 0.084789164 -0.10601612 -0.06560244
0000a0 0b b1 db 3d 58 5b 76 be 31 83 ad 3d 58 47 b9 3c
       0.10727128 -0.24058282 0.084722884 0.022617027
0000b0 fb 5e 5f be d7 85 46 bd 30 2b e1 3d 30 ea c1 bd
       -0.21813576 -0.048467483 0.109945655 -0.09468496
0000c0 73 bd 33 3e 4a ce 05 3e b9 0c 21 3e 14 64 f0 3d
       0.17552738 0.13066974 0.1572751 0.117378384
0000d0 0b 01 62 bd cf b2 39 bd 75 2a ba bd c2 7f f8 3d
       -0.055176776 -0.04533654 -0.09090129 0.12133743
0000e0 df df dd bd 2d 0c ce 3d ba 6c 81 3c aa 27 c2 3d
       -0.10833716 0.10060916 0.015798915 0.094802216
0000f0 5c aa 9e 3d 5d 0b f5 3d 58 e4 0d be c6 cf e9 3d
       0.07747337 0.11965058 -0.13856637 0.11416583
