experiments/best_model.pt (torch, 20454 bytes, 6 tensors)

conv1.bias f4 [64]
0	0xbb3c1125	-0.0028696742
1	0x3e51d721	0.20492221
2	0xbb76c71d	-0.0037655302
3	0x80047432	-4.09025e-40
4	0xbb73b7f1	-0.0037188495
5	0xbb9ab08d	-0.0047207535
6	0xa0d6e2db	-3.640313e-19
7	0x800ce1da	-1.183046e-39
8	0xbbe39dbf	-0.006946295
9	0x80004eac	-2.8222e-41
10	0xbbd5728d	-0.0065138997
11	0xb791cf6c	-1.7381935e-05
12	0x8004684b	-4.04755e-40
13	0x8815448b	-4.491863e-34
14	0xbbf22eb0	-0.0073908195
15	0xbb3a0816	-0.0028386167
16	0x80004b62	-2.7042e-41
17	0xbb89c296	-0.0042041047
18	0xbb30b51e	-0.0026963423
19	0x957788a9	-4.998906e-26
20	0x800c0087	-1.102215e-39
21	0xbb751976	-0.003739921
22	0xbb880aa1	-0.0041516577
23	0x3e4bd4ed	0.19905443
24	0xa3ba9261	-2.0228154e-17
25	0x80001f88	-1.1311e-41
26	0xbc4f9a55	-0.012671073
27	0x3e406eed	0.18792315
28	0xb97cdaa7	-0.00024114047
29	0xbbc81492	-0.006105968
30	0xbb589912	-0.0033050221
31	0x3e43ae13	0.19109373
32	0xbb76acf6	-0.0037639714
33	0xbaefff3d	-0.001831032
34	0xbb981d3c	-0.004642157
35	0x3e542f91	0.2072127
36	0xb99f7023	-0.00030410392
37	0xb98c1293	-0.0002671672
38	0xbc1d80d5	-0.0096132355
39	0xbcb95e64	-0.022628017
40	0x80094f7c	-8.55033e-40
41	0xbba00ee0	-0.0048845857
42	0x3e3fe0c5	0.18738087
43	0x3e5f33a5	0.21797045
44	0xbb5099cb	-0.003182995
45	0xbb07bc92	-0.0020711762
46	0xbb962d70	-0.0045830533
47	0xba04d856	-0.0005067637
48	0xb8ff9a40	-0.00012188079
49	0xbc0e00d2	-0.008667188
50	0xba9d7fc7	-0.001201623
51	0x8009ffa0	-9.1822e-40
52	0xa15aa685	-7.408166e-19
53	0x3e468fde	0.19390818
54	0xb4adc7ff	-3.2369277e-07
55	0x3e55369f	0.20821618
56	0x800589c2	-5.08596e-40
57	0xb75f222d	-1.3299793e-05
58	0xbb3ab59d	-0.0028489598
59	0xbb88a362	-0.0041698674
60	0xb7003757	-7.642279e-06
61	0xbbb8b77e	-0.0056371083
62	0xa9b070cd	-7.835538e-14
63	0xbb84542e	-0.0040383553

conv1.lin.weight f4 [64, 1]
0	0x3e41fbec	0.18943757
1	0xbf57c263	-0.84280986
2	0x3e85fe31	0.26170495
3	0x80006194	-3.5004e-41
4	0x3e90ba3b	0.28267083
5	0x3e9fbdf9	0.31199625
6	0x80017b3d	-1.36045e-40
7	0x800bfc37	-1.100668e-39
8	0x3e87a734	0.26494753
9	0x80011e59	-1.02722e-40
10	0x3e645887	0.22299396
11	0xabdbe809	-1.5625289e-12
12	0x0000c8d5	7.2045e-41
13	0x00008b57	4.9986e-41
14	0x3e650efb	0.22368996
15	0x3e848296	0.2588088
16	0x800986c0	-8.74859e-40
17	0x3e94ef82	0.2908898
18	0x3e7e10da	0.24811116
19	0x800b3c49	-1.031817e-39
20	0x8002175a	-1.92048e-40
21	0x3e8fef72	0.2811237
22	0x3e5af483	0.21382336
23	0xbf4ec074	-0.8076241
24	0x8001d0e7	-1.66776e-40
25	0x8007ab72	-7.04351e-40
26	0x3cd79f56	0.026321094
27	0xbf465f14	-0.7748883
28	0xaf17a549	-1.3792091e-10
29	0x3e6c88dc	0.23099083
30	0x3e5b56f4	0.21419889
31	0xbf4684d4	-0.7754643
32	0x3e417ef8	0.18896091
33	0x3e9a1400	0.30093384
34	0x3e904cb5	0.28183523
35	0xbf57864c	-0.84189296
36	0xb2a8f889	-1.9670795e-08
37	0x33de8e0b	1.0363518e-07
38	0x3df32352	0.11871971
39	0xbbfc9f0a	-0.0077093886
40	0x00033496	2.94371e-40
41	0x3e86dc9d	0.2634019
42	0xbf40e22e	-0.7534512
43	0xbf6456fc	-0.8919523
44	0x3e714838	0.23562706
45	0x3e83a93e	0.2571506
46	0x3e82e679	0.25566462
47	0x38399728	4.4248212e-05
48	0xb95d2e6c	-0.00021093496
49	0xb9a76776	-0.00031929807
50	0x3e51628e	0.20447752
51	0x0000b7ef	6.5983e-41
52	0x8004bf16	-4.35891e-40
53	0xbf4ae631	-0.79257494
54	0xae2a16ce	-3.867378e-11
55	0xbf5d4240	-0.86429214
56	0x8005478e	-4.84846e-40
57	0x9e2c853c	-9.1331564e-21
58	0x3e5f109a	0.21783677
59	0x3e657ccc	0.22410887
60	0xa9319558	-3.943143e-14
61	0x3e95df42	0.29271895
62	0x048c8cb6	3.3043064e-36
63	0x3e633a31	0.22190167

conv2.bias f4 [64]
0	0x3cfc516e	0.030800547
1	0x3df08295	0.117436565
2	0x3dac0501	0.08399392
3	0x3dd87421	0.10569025
4	0x3ddbe012	0.107360974
5	0xb3939d71	-6.873859e-08
6	0x3dedb8ce	0.11607514
7	0x3deacf64	0.11465338
8	0x3d5b1e8c	0.05349593
9	0x3de804fe	0.11329077
10	0x9a063388	-2.7752177e-23
11	0x975c14e5	-7.1112206e-25
12	0xbb4bb4c6	-0.003108309
13	0x3e03db37	0.12876593
14	0x3d954b6c	0.07289776
15	0x3dee6a5a	0.11641379
16	0x3de998c1	0.114060886
17	0xb8e7f180	-0.00011059921
18	0x3dc8feff	0.09814262
19	0x3e057286	0.13031968
20	0x3e0884c9	0.13331904
21	0x3dbb3f8e	0.091429815
22	0x3df3c4b0	0.119027495
23	0x3ddd8ffd	0.10818479
24	0x8ef24273	-5.9721594e-30
25	0x3de9b536	0.11411516
26	0x3d93b177	0.07211583
27	0x3ddc22c6	0.1074882
28	0x3db6b858	0.089218795
29	0x3df4ab61	0.119467504
30	0xb216f243	-8.786233e-09
31	0x3dee7121	0.116426714
32	0xb014d4ab	-5.4144306e-10
33	0xb79cab1d	-1.867633e-05
34	0x3dcf3ec8	0.101193964
35	0xabd77cae	-1.5311274e-12
36	0x3ded3dde	0.11584066
37	0xb800284c	-3.0555108e-05
38	0x3df8501a	0.12124653
39	0x3de48b38	0.11159366
40	0x3dd124a3	0.10212066
41	0x3da02382	0.078192726
42	0x3dddfced	0.108392574
43	0x3ce67183	0.028130298
44	0x3df62c3b	0.12020155
45	0x3ddb9260	0.10721278
46	0x3df83a78	0.12120527
47	0xa91d6f1f	-3.4957385e-14
48	0x3df00caa	0.117211655
49	0x3df3cb0a	0.11903961
50	0x87dd8d9a	-3.333561e-34
51	0x3dfd6084	0.123719245
52	0x3dbb8119	0.09155483
53	0x3dce4958	0.10072583
54	0x3db27d89	0.0871535
55	0x3d9cd11f	0.07657074
56	0x3db41e17	0.08794802
57	0x3dc91757	0.09818905
58	0x3de9abc8	0.11409718
59	0x3d883f59	0.066527076
60	0x3dff058f	0.12452232
61	0x3df492e1	0.119420774
62	0x3dfc06ab	0.12305959
63	0x3ddc7021	0.107635744

conv2.lin.weight f4 [64, 64]
0	0xbb13d2d8	-0.0022556093
1	0x3db6ea6c	0.08931431
2	0xbc292e46	-0.010325974
3	0x00032b68	2.91078e-40
4	0x3bb91821	0.0056486283
5	0xbbcfc64d	-0.006340778
6	0x800e8e71	-1.336795e-39
7	0x800f2320	-1.390133e-39
8	0x3b3566a7	0.0027679594
9	0x0006c5ff	6.2204e-40
10	0x3c00047c	0.007813569
11	0x8268608c	-1.7072376e-37
12	0x800cdad6	-1.18053e-39
13	0x00047607	4.09682e-40
14	0x3c8c655c	0.017138176
15	0x3a68f60a	0.00088867603
16	0x8001cddf	-1.65688e-40
17	0xbb8a6148	-0.0042230226
18	0x3c56e30f	0.013115658
19	0x8002221f	-1.95911e-40
20	0x800bbc31	-1.077701e-39
21	0xba7edb92	-0.00097220496
22	0xbb3ef6d4	-0.002913882
23	0x3da98e40	0.08279085
24	0x0005a1ff	5.17291e-40
25	0x80066295	-5.86378e-40
26	0x3a6a452e	0.00089367
27	0x3dc77619	0.09739322
28	0x05a490cd	1.5475677e-35
29	0xbb174f23	-0.002308794
30	0x3a03f76f	0.0005034124
31	0x3daec811	0.085342534
32	0x3bad46b0	0.0052879676
33	0xbc9f11cb	-0.019417664
34	0xbbda1c0b	-0.006656175
35	0x3ddc5bf0	0.10759723
36	0x0003aff3	3.38625e-40
37	0x0008122a	7.412e-40
38	0x3b871941	0.0041228835
39	0x26909085	1.0031179e-15
40	0x000172ac	1.32972e-40
41	0xbbd05900	-0.006358266
42	0x3db4dc7d	0.08831117
43	0x3df46041	0.119324215
44	0xbbc6f0ed	-0.006071201
45	0xbc48cf22	-0.012256416
46	0xbc8c9524	-0.01716096
47	0x00073e6e	6.65244e-40
48	0xb69475e8	-4.42447e-06
49	0x9e25bd99	-8.774235e-21
50	0x395e94e8	0.00021227042
51	0x8005d446	-5.35327e-40
52	0x0001e49f	1.73849e-40
53	0x3de0a241	0.109684475
54	0x2c6cdd92	3.3660613e-12
55	0x3df21f48	0.11822373
56	0x005f54e7	8.75483e-39
57	0x000209cf	1.8719e-40
58	0xbc471698	-0.012151383
59	0xbc4c4de6	-0.012469744
60	0x0004c5db	4.38319e-40
61	0xbb3c57d2	-0.0028738868
62	0x81db0a42	-8.0462614e-38
63	0x3a43a56c	0.00074633094
64	0x3d1af273	0.037828874
65	0xbe15fe50	-0.14647794
66	0x3d366603	0.04453088
67	0x8007acb4	-7.04803e-40
68	0x3d3bdaa1	0.045862798
69	0x3d858974	0.06520358
70	0x80004a36	-2.6622e-41
71	0x000467d4	4.04588e-40
72	0x3d18884e	0.037239365
73	0x000e1a53	1.29514e-39
74	0x3d3aed4c	0.04563646
75	0x01661306	4.2257977e-38
76	0x0003d3b7	3.51455e-40
77	0x8003881e	-3.24336e-40
78	0x3c9c0e13	0.01904968
79	0x3d21c5d2	0.039495297
80	0x8009b48c	-8.91287e-40
81	0x3cc0ea98	0.023549363
82	0x3d84c574	0.06482974
83	0x8003767f	-3.18015e-40
84	0x000175a8	1.34043e-40
85	0x3d540648	0.051763803
86	0x3d4267d0	0.047462285
87	0xbe1de9a1	-0.15421154
88	0x800491a1	-4.19584e-40
89	0x00010aa1	9.5648e-41
90	0x3b3f55b1	0.0029195363
91	0xbe164196	-0.14673457
92	0x85e61c51	-2.1639498e-35
93	0x3d257144	0.04039122
94	0x3d3646b5	0.044501025
95	0xbe1f0e63	-0.15532832
96	0x3cca0512	0.02466062
97	0x3d344e3a	0.044019915
98	0x3d71b0ae	0.059006386
99	0xbe1c1a9c	-0.15244526
100	0x80083f6e	-7.57438e-40
101	0x80018b6b	-1.41849e-40
102	0x3cc6aa57	0.024251146
103	0xb2ab86ec	-1.9968375e-08
104	0x000a51d7	9.47714e-40
105	0x3d034272	0.03204579
106	0xbe13ca4b	-0.14432637
107	0xbe2c071c	-0.16799587
108	0x3d473af0	0.04864019
109	0x3cd90bbd	0.026494855
110	0x3c910e83	0.017707115
111	0x0d2ae540	5.2661244e-31
112	0x38113a48	3.4624973e-05
113	0x97aa9471	-1.1023464e-24
114	0x3d35f71d	0.04442512
115	0x000a5321	9.48176e-40
116	0x80014c05	-1.19106e-40
117	0xbe1decfb	-0.15422432
118	0x2d8a65a9	1.573393e-11
119	0xbe2caa0a	-0.1686174
120	0x800194ee	-1.45261e-40
121	0x8007c1f0	-7.1242e-40
122	0x3d0d5a03	0.03450967
123	0x3cec115c	0.028816871
124	0x8004d8a8	-4.45064e-40
125	0x3d53bdcd	0.05169468
126	0x02245d8d	1.2075665e-37
127	0x3d1bf8f7	0.03807923
128	0xbc18c653	-0.009324628
129	0x3e10d760	0.14144659
130	0xbd10b216	-0.035326086
131	0x000d6b15	1.232275e-39
132	0xbc55ddaa	-0.013053337
133	0xbca548c5	-0.0201763
134	0x80045e36	-4.01139e-40
135	0x0001b81a	1.57879e-40
136	0xbc93fa58	-0.01806371
137	0x000afaba	1.008299e-39
138	0xbc0efba4	-0.008726988
139	0x81b4ce2d	-6.6417405e-38
140	0x00045ec0	4.01332e-40
141	0x80011f89	-1.03148e-40
142	0x3b39506b	0.0028276693
143	0xbb8a9dee	-0.0042302525
144	0x80059821	-5.13751e-40
145	0xbd072951	-0.032998387
146	0xbc079bb7	-0.008276871
147	0x0006b69b	6.1652e-40
148	0x80029321	-2.36451e-40
149	0xbac0b427	-0.0014702127
150	0x3b3787e8	0.002800459
151	0x3df486e6	0.11939792
152	0x8006d2f7	-6.26693e-40
153	0x8000a77c	-6.0082e-41
154	0x3b69e892	0.0035691601
155	0x3e12c38b	0.14332406
156	0x06a6e5f2	6.2780134e-35
157	0x3bb62e99	0.005559754
158	0xbc22f94a	-0.00994713
159	0x3e1eb0f7	0.15497194
160	0xbca8a168	-0.020584777
161	0xbd2642e2	-0.04059113
162	0xbd5878f6	-0.052849732
163	0x3e42cefb	0.1902427
164	0x0000b108	6.3507e-41
165	0x8001314c	-1.0952e-40
166	0x3c3b3ca9	0.011428037
167	0x3309d989	3.2095645e-08
168	0x800e86f7	-1.334113e-39
169	0xbcffba52	-0.031216774
170	0x3e22d291	0.15900637
171	0x3e2f7990	0.17136216
172	0xbcdef17e	-0.027214762
173	0xbc7f21ea	-0.015572051
174	0xbca0c695	-0.019625941
175	0x8f0997c8	-6.7838535e-30
176	0xb86c4a2a	-5.6335855e-05
177	0xaf539c60	-1.9245894e-10
178	0xbc47dff9	-0.012199395
179	0x8002e09d	-2.64247e-40
180	0x80059b4b	-5.14886e-40
181	0x3e19f033	0.15033035
182	0x2af996cc	4.4335922e-13
183	0x3e279018	0.16363561
184	0x000f2469	1.390594e-39
185	0x000af426	1.005939e-39
186	0xbcc1f8d8	-0.023678228
187	0x3be8fbcb	0.007110094
188	0x800304a6	-2.77174e-40
189	0xbc9eda16	-0.0193911
190	0x81679668	-4.253591e-38
191	0xbbd22746	-0.006413373
192	0x3cced84b	0.02524962
193	0xbe033d32	-0.12816313
194	0x3cbd9d21	0.023146214
195	0x0004a125	4.2515e-40
196	0x3d19b389	0.037524734
197	0x3d17be5e	0.037046783
198	0x80029f7b	-2.40882e-40
199	0x000698c2	6.05812e-40
200	0x3c35e3ff	0.011101722
201	0x00001e70	1.0919e-41
202	0x3c896140	0.016770005
203	0x81fff220	-9.401964e-38
204	0x800c3969	-1.122621e-39
205	0x8004689d	-4.0487e-40
206	0x3cdf6e0f	0.02727416
207	0x3d123bfb	0.035701733
208	0x8009da3e	-9.0481e-40
209	0x3cf99844	0.030468114
210	0x3d24ec69	0.04026452
211	0x80093394	-8.45022e-40
212	0x00018864	1.40763e-40
213	0x3cfbbe36	0.030730348
214	0x3cfe983c	0.03107845
215	0xbdfc069f	-0.123059504
216	0x8002c084	-2.52733e-40
217	0x80083ffc	-7.57637e-40
218	0x3a91db35	0.0011127951
219	0xbe125db6	-0.1429356
220	0x863c963b	-3.5469242e-35
221	0x3c7f0d61	0.015567155
222	0x3cdcc389	0.026948707
223	0xbe08fe0b	-0.1337816
224	0x3cafc0dc	0.021454267
225	0x3d07396e	0.033013754
226	0x3d387a40	0.04503846
227	0xbe0b2e71	-0.13591935
228	0x80007f67	-4.5703e-41
229	0x0004f59c	4.5545e-40
230	0x3c460b6d	0.012087685
231	0xb116ce6c	-2.194521e-09
232	0x000ea3f7	1.344516e-39
233	0x3cc268f5	0.023731688
234	0xbdfdc344	-0.123907596
235	0xbe05a5c8	-0.13051522
236	0x3c7cc413	0.015427607
237	0x3c77a452	0.015114861
238	0x3cd48e17	0.02594666
239	0x089efc4a	9.568592e-34
240	0x37c8eff5	2.3953597e-05
241	0x99542290	-1.0967123e-23
242	0x3d0dc136	0.03460809
243	0x800a01a8	-9.18949e-40
244	0x8002be1b	-2.51868e-40
245	0xbe0c31c1	-0.13690855
246	0x2d3b4f0c	1.0647271e-11
247	0xbe14962a	-0.14510408
248	0x800b8884	-1.059163e-39
249	0x8001a2b3	-1.50201e-40
250	0x3b703e43	0.0036658205
251	0x3c72e6be	0.014825521
252	0x800314bb	-2.82943e-40
253	0x3a8269dd	0.0009949763
254	0x82636da7	-1.6708795e-37
255	0x3c87b0be	0.01656377

fc.weight f4 [2, 64]
0	0xbe301c0e	-0.17198202
1	0x3e67d712	0.22640637
2	0xbe944df0	-0.28965712
3	0x3e53a225	0.20667322
4	0x3e428d38	0.18999183
5	0xb8bb3269	-8.9262445e-05
6	0x3e6642bd	0.22486396
7	0x3e3bc49a	0.18336716
8	0xbe57f948	-0.21091187
9	0x3e64895a	0.2231802
10	0x9b681775	-1.919817e-22
11	0x96c3bdfe	-3.162385e-25
12	0x3b83efa0	0.0040263683
13	0x3e860243	0.261736
14	0xbe8202d7	-0.25392792
15	0x3e551928	0.20810378
16	0x3e33472f	0.17507623
17	0xb983b880	-0.0002512373
18	0xbe9c1482	-0.30484396
19	0x3e837a9f	0.2567949
20	0x3e522538	0.2052201
21	0xbe50c9d8	-0.20389497
22	0x3e7fa0e6	0.24963722
23	0xbe98d0fa	-0.29846936
24	0xa2cb3747	-5.5081787e-18
25	0x3e74638a	0.23866096
26	0xbe6a33a8	-0.22871268
27	0x3e2f1e85	0.17101486
28	0xbe70574a	-0.23470798
29	0x3e4dc356	0.20094046
30	0x312705a5	2.4304907e-09
31	0x3e80ce3c	0.25157344
32	0x358e4e26	1.0602569e-06
33	0x36c56183	5.8824094e-06
34	0x3e2230eb	0.15838973
35	0x3233cc40	1.0465612e-08
36	0x3e6da92a	0.23209062
37	0xb74b56b1	-1.2119927e-05
38	0xbe963b51	-0.2934213
39	0x3e59f911	0.21286418
40	0xbe7b544b	-0.24543874
41	0xbe563771	-0.20919587
42	0x3e896ede	0.26842397
43	0xbe43ca8d	-0.19120236
44	0x3e84fdf4	0.25975
45	0xbe607745	-0.21920498
46	0x3e88f142	0.26746565
47	0xa8721410	-1.3438049e-14
48	0x3e4326f4	0.19057828
49	0x3e6cbccb	0.23118894
50	0x08cd9bca	1.23746145e-33
51	0x3e89df99	0.26928404
52	0xbe84d001	-0.25939944
53	0xbe9df788	-0.30852914
54	0xbe857e44	-0.26072896
55	0xbe81741d	-0.252839
56	0xbe7b0e44	-0.2451716
57	0xbe7b9089	-0.24566855
58	0x3e825035	0.25451818
59	0xbe6f025e	-0.23340747
60	0x3e2598b9	0.1617154
61	0x3e6cadbc	0.2311315
62	0x3e8135c4	0.25236332
63	0x3e80989b	0.2511643
64	0x3e10d1fa	0.141426
65	0xbe68d4ca	-0.22737423
66	0x3e898e05	0.26866165
67	0xbe3f266f	-0.18667005
68	0xbe69277f	-0.22768973
69	0xb8ffbade	-0.00012194154
70	0xbe754e47	-0.23955642
71	0xbe82c8fb	-0.2554396
72	0x3e6aeccf	0.22941898
73	0xbe6e3194	-0.232611
74	0x1b681ac0	1.9199234e-22
75	0x16c3ba78	3.1621627e-25
76	0xbb8320c7	-0.00400171
77	0xbe86268e	-0.2620129
78	0x3e49d597	0.19710384
79	0xbe74a534	-0.23891145
80	0xbe813eb1	-0.25243142
81	0x3983cb24	0.0002513762
82	0x3ea90dbc	0.3301829
83	0xbe8018a5	-0.25018802
84	0xbe9882cc	-0.2978729
85	0x3e9de3c5	0.30837837
86	0xbe6c2dee	-0.23064396
87	0x3e69aaa6	0.22819003
88	0x22cb76fb	5.5149236e-18
89	0xbe24c33e	-0.16090104
90	0x3e6e22ad	0.23255415
91	0xbe6d338c	-0.23164195
92	0x3e848e16	0.25889653
93	0xbe842a05	-0.25813308
94	0xb12705e0	-2.4305038e-09
95	0xbe77c293	-0.24195318
96	0xb58e0c76	-1.0583451e-06
97	0xb6c5a280	-5.889975e-06
98	0xbe5d9068	-0.21637118
99	0xb233cbf7	-1.04655475e-08
100	0xbe483b0e	-0.19553778
101	0x374af26a	1.209658e-05
102	0x3e9ed6b1	0.31023172
103	0xbe5de187	-0.21668063
104	0x3e93dd2c	0.28879678
105	0x3e88a7d0	0.2669053
106	0xbe288546	-0.1645709
107	0x3e6b9e77	0.23009668
108	0xbe751ef3	-0.23937587
109	0x3eae5928	0.34052396
110	0xbe575bb1	-0.21031071
111	0x2872140a	1.3438044e-14
112	0xbe8c082c	-0.27349985
113	0xbe72a351	-0.23695113
114	0x88cd9b55	-1.2374507e-33
115	0xbe2b4c2b	-0.16728275
116	0x3e7f9041	0.24957372
117	0x3e8cf7a3	0.27532682
118	0x3e840d98	0.2579162
119	0x3e8a2562	0.26981646
120	0x3e8b8d70	0.27256346
121	0x3e83975c	0.25701416
122	0xbe63c01a	-0.2224125
123	0x3e441d79	0.19151868
124	0xbe9b6d2d	-0.30356732
125	0xbe63fd68	-0.22264636
126	0xbe55fd25	-0.20897348
127	0xbe1bb72b	-0.15206592

fc.bias f4 [2]
0	0x3c3a72fa	0.011379952
1	0x3c25933d	0.010105905
